…
2019-03-20 17:06:13.069273: I tensorflow/core/common_runtime/gpu/gpu_device.cc:1115] Created TensorFlow device (/job:localhost/replica:0/task:0/device:GPU:0 with 10407 MB memory) -> physical GPU (device: 0, name: GeForce GTX 1080 Ti, pci bus id: 0000:05:00.0, compute capability: 6.1)
Getting and resizing test masks... 
__________________________________________________________________________________________________
Layer (type)                    Output Shape         Param #     Connected to                     
==================================================================================================
input_1 (InputLayer)            (None, 768, 1024, 1) 0                                            
__________________________________________________________________________________________________
lambda_1 (Lambda)               (None, 768, 1024, 1) 0           input_1[0][0]                    
__________________________________________________________________________________________________
conv2d_1 (Conv2D)               (None, 768, 1024, 16 160         lambda_1[0][0]                   
__________________________________________________________________________________________________
dropout_1 (Dropout)             (None, 768, 1024, 16 0           conv2d_1[0][0]                   
__________________________________________________________________________________________________
conv2d_2 (Conv2D)               (None, 768, 1024, 16 2320        dropout_1[0][0]                  
__________________________________________________________________________________________________
max_pooling2d_1 (MaxPooling2D)  (None, 384, 512, 16) 0           conv2d_2[0][0]                   
__________________________________________________________________________________________________
conv2d_3 (Conv2D)               (None, 384, 512, 32) 4640        max_pooling2d_1[0][0]            
__________________________________________________________________________________________________
dropout_2 (Dropout)             (None, 384, 512, 32) 0           conv2d_3[0][0]                   
__________________________________________________________________________________________________
conv2d_4 (Conv2D)               (None, 384, 512, 32) 9248        dropout_2[0][0]                  
__________________________________________________________________________________________________
max_pooling2d_2 (MaxPooling2D)  (None, 192, 256, 32) 0           conv2d_4[0][0]                   
__________________________________________________________________________________________________
conv2d_5 (Conv2D)               (None, 192, 256, 64) 18496       max_pooling2d_2[0][0]            
__________________________________________________________________________________________________
dropout_3 (Dropout)             (None, 192, 256, 64) 0           conv2d_5[0][0]                   
__________________________________________________________________________________________________
conv2d_6 (Conv2D)               (None, 192, 256, 64) 36928       dropout_3[0][0]                  
__________________________________________________________________________________________________
max_pooling2d_3 (MaxPooling2D)  (None, 96, 128, 64)  0           conv2d_6[0][0]                   
__________________________________________________________________________________________________
conv2d_7 (Conv2D)               (None, 96, 128, 128) 73856       max_pooling2d_3[0][0]            
__________________________________________________________________________________________________
dropout_4 (Dropout)             (None, 96, 128, 128) 0           conv2d_7[0][0]                   
__________________________________________________________________________________________________
conv2d_8 (Conv2D)               (None, 96, 128, 128) 147584      dropout_4[0][0]                  
__________________________________________________________________________________________________
max_pooling2d_4 (MaxPooling2D)  (None, 48, 64, 128)  0           conv2d_8[0][0]                   
__________________________________________________________________________________________________
conv2d_9 (Conv2D)               (None, 48, 64, 256)  295168      max_pooling2d_4[0][0]            
__________________________________________________________________________________________________
dropout_5 (Dropout)             (None, 48, 64, 256)  0           conv2d_9[0][0]                   
__________________________________________________________________________________________________
conv2d_10 (Conv2D)              (None, 48, 64, 256)  590080      dropout_5[0][0]                  
__________________________________________________________________________________________________
conv2d_transpose_1 (Conv2DTrans (None, 96, 128, 128) 131200      conv2d_10[0][0]                  
__________________________________________________________________________________________________
concatenate_1 (Concatenate)     (None, 96, 128, 256) 0           conv2d_transpose_1[0][0]         
                                                                 conv2d_8[0][0]                   
__________________________________________________________________________________________________
conv2d_11 (Conv2D)              (None, 96, 128, 128) 295040      concatenate_1[0][0]              
__________________________________________________________________________________________________
dropout_6 (Dropout)             (None, 96, 128, 128) 0           conv2d_11[0][0]                  
__________________________________________________________________________________________________
conv2d_12 (Conv2D)              (None, 96, 128, 128) 147584      dropout_6[0][0]                  
__________________________________________________________________________________________________
conv2d_transpose_2 (Conv2DTrans (None, 192, 256, 64) 32832       conv2d_12[0][0]                  
__________________________________________________________________________________________________
concatenate_2 (Concatenate)     (None, 192, 256, 128 0           conv2d_transpose_2[0][0]         
                                                                 conv2d_6[0][0]                   
__________________________________________________________________________________________________
conv2d_13 (Conv2D)              (None, 192, 256, 64) 73792       concatenate_2[0][0]              
__________________________________________________________________________________________________
dropout_7 (Dropout)             (None, 192, 256, 64) 0           conv2d_13[0][0]                  
__________________________________________________________________________________________________
conv2d_14 (Conv2D)              (None, 192, 256, 64) 36928       dropout_7[0][0]                  
__________________________________________________________________________________________________
conv2d_transpose_3 (Conv2DTrans (None, 384, 512, 32) 8224        conv2d_14[0][0]                  
__________________________________________________________________________________________________
concatenate_3 (Concatenate)     (None, 384, 512, 64) 0           conv2d_transpose_3[0][0]         
                                                                 conv2d_4[0][0]                   
__________________________________________________________________________________________________
conv2d_15 (Conv2D)              (None, 384, 512, 32) 18464       concatenate_3[0][0]              
__________________________________________________________________________________________________
dropout_8 (Dropout)             (None, 384, 512, 32) 0           conv2d_15[0][0]                  
__________________________________________________________________________________________________
conv2d_16 (Conv2D)              (None, 384, 512, 32) 9248        dropout_8[0][0]                  
__________________________________________________________________________________________________
conv2d_transpose_4 (Conv2DTrans (None, 768, 1024, 16 2064        conv2d_16[0][0]                  
__________________________________________________________________________________________________
concatenate_4 (Concatenate)     (None, 768, 1024, 32 0           conv2d_transpose_4[0][0]         
…
